…
6346/6346 [==============================] - 1114s 176ms/step - loss: 0.0097 - val_loss: 0.0456
Epoch 3/5
6346/6346 [==============================] - 1066s 168ms/step - loss: 0.0057 - val_loss: 0.0433
Epoch 4/5
6346/6346 [==============================] - 1062s 167ms/step - loss: 0.0042 - val_loss: 0.0435
Epoch 5/5
6346/6346 [==============================] - 1062s 167ms/step - loss: 0.0035 - val_loss: 0.0420
Done! Model Saved!
_________________________________________________________________
Layer (type)                 Output Shape              Param #   
=================================================================
lambda_1 (Lambda)            (None, 160, 320, 3)       0         
_________________________________________________________________
cropping2d_1 (Cropping2D)    (None, 65, 320, 3)        0         
_________________________________________________________________
conv2d_1 (Conv2D)            (None, 31, 158, 24)       1824      
_________________________________________________________________
activation_1 (Activation)    (None, 31, 158, 24)       0         
_________________________________________________________________
conv2d_2 (Conv2D)            (None, 14, 77, 36)        21636     
_________________________________________________________________
activation_2 (Activation)    (None, 14, 77, 36)        0         
_________________________________________________________________
conv2d_3 (Conv2D)            (None, 5, 37, 48)         43248     
_________________________________________________________________
activation_3 (Activation)    (None, 5, 37, 48)         0         
_________________________________________________________________
conv2d_4 (Conv2D)            (None, 3, 35, 64)         27712     
_________________________________________________________________
activation_4 (Activation)    (None, 3, 35, 64)         0         
_________________________________________________________________
conv2d_5 (Conv2D)            (None, 1, 33, 64)         36928     
_________________________________________________________________
activation_5 (Activation)    (None, 1, 33, 64)         0         
_________________________________________________________________
flatten_1 (Flatten)          (None, 2112)              0         
_________________________________________________________________
dense_1 (Dense)              (None, 100)               211300    
_________________________________________________________________
activation_6 (Activation)    (None, 100)               0         
_________________________________________________________________
dropout_1 (Dropout)          (None, 100)               0         
_________________________________________________________________
dense_2 (Dense)              (None, 50)                5050      
_________________________________________________________________
activation_7 (Activation)    (None, 50)                0         
_________________________________________________________________
dense_3 (Dense)              (None, 10)                510       
_________________________________________________________________
activation_8 (Activation)    (None, 10)                0         
_________________________________________________________________
dense_4 (Dense)              (None, 1)                 11        
=================================================================
Total params: 348,219
Trainable params: 348,219
Non-trainable params: 0
_________________________________________________________________
(base) vijay@ubuntu-18-04:~/AI ML DL/Self-driving car/Udacity-SDC/Project4-Behavioral-cloning/CarND-Behavioral-Cloning-P3$ 
